src/model/model.pth (torch, 209180 bytes, 9 tensors)

lstm.weight_ih_l0 f4 [256, 5]
-0.018851897 0.024358382 -0.03112953 -0.0022462995 -0.09288093 0.008675515 -0.109565556 0.11017507
-0.020135771 0.08050057 0.05955622 -0.135356 -0.030614864 -0.08570745 0.102500856 0.08517344
0.0965369 0.07670154 0.044708055 0.059100673 -0.024889963 0.043789268 -0.05133648 0.10692025
0.06667442 -0.08703994 -0.03639871 0.004745539 0.016747236 -0.0820356 -0.007749581 -0.086988084
0.044728726 0.020968946 0.103425324 -0.07897429 0.11566658 0.07945266 0.009583283 -0.066426694
-0.10339565 0.097330056 0.01566209 0.1133449 0.07258741 0.07421881 0.12413404 -0.059126023
0.0032909825 0.088169165 0.083227575 0.045652613 0.028808951 0.109411865 -0.04140344 -0.021037929
0.14024054 -0.07521513 0.0071218517 0.058382615 -0.079721764 0.07515018 0.11342784 0.103722826
0.05472875 0.095446266 -0.08674334 0.08494364 0.008654458 -0.06181528 0.11181706 0.03584538
0.02487294 -0.09430426 0.091442026 0.060283635 -0.010616391 -0.010069907 0.044721056 0.05590484
-0.07836983 0.12728304 0.14493315 0.018984128 -0.04037453 0.12214231 0.11206029 0.07000944
-0.09596369 -0.11048421 0.020086806 0.030124549 -0.03680651 0.121877916 -0.07785729 -0.082329564
-0.09110476 -0.042947453 -0.0108271465 -0.08986935 -0.013754147 0.11538025 0.10708408 0.016416596
-0.15883896 0.07483136 -0.004126185 -0.03723494 0.035143703 -0.106355816 -0.04215282 0.07965178
-0.022577258 -0.11346739 -0.06535391 0.1189271 -0.010905639 -0.12774758 0.019476926 -0.008308557
-0.02927524 0.12779365 -0.13444793 -0.04013039 0.116568096 -0.070085414 -0.01734431 -0.10941117
-0.12550353 -0.02907277 0.14382365 0.013789469 0.079368435 -0.011902246 -0.07337322 0.06725343
0.059092227 -0.0026944852 -0.03847496 0.061768625 0.11319867 -0.018204553 0.029241929 0.120731115
-0.012870286 0.14068119 0.10211038 0.05845015 -0.0029358922 -0.004114416 0.044577055 -0.009574578
-0.030576576 0.004642914 -0.089094944 0.06407547 -0.1377966 0.07112637 0.043872688 0.0063025528
-0.08753874 0.086225726 0.08957503 -0.05708855 -0.084764384 -0.10675331 0.1242263 0.057801574
0.11714168 -0.062339786 0.06660388 -0.0037146476 -0.050399728 -0.03138886 0.07588635 0.09089439
0.034345075 -0.08967118 -0.031186497 -0.09128635 0.08331469 0.07976502 0.07802668 0.09429349
0.045740306 0.0681347 0.10320364 -0.06658594 0.027874408 0.107139505 -0.10745154 -0.07970107
0.02221526 -0.06697988 0.0017645612 -0.08323157 0.08427797 -0.024428293 -0.048158977 -0.005029587
0.13265143 0.07977899 0.10313828 0.018619822 -0.06536266 0.042699505 -0.02831586 -0.0682792
-0.025966665 0.14371319 -0.09164659 0.0045130663 0.027627597 -0.068894245 0.04936778 -0.01713487
0.07192891 0.10928995 0.027156 0.019674795 0.016477307 -0.03385822 -0.06558405 0.09047484
0.026501741 -0.15033871 0.10921879 0.03349688 0.0029605106 0.04239112 -0.0611485 0.021152588
0.11245786 -0.044111203 -0.07482527 0.037564088 0.08655033 0.06570621 0.07614325 -0.061890017
0.05008495 0.10390905 -0.0039270394 -0.00083351857 -0.12239915 -0.07610287 -0.06494404 -0.12322952
-0.03615445 -0.028400404 0.040907323 0.10701844 0.100569054 0.11531751 0.10193634 0.08770121
00000000: 4b6f 9abc 3b8b c73c 5b03 ffbc a736 13bb
00000010: 5b38 bebd bf23 0e3c e863 e0bd 78a3 e13d
00000020: c6f3 a4bc 7cdd a43d 39f1 733d c39a 0abe
00000030: 06cc fabc 6387 afbd f8eb d13d 6a6f ae3d
00000040: 23b5 c53d b215 9d3d cb1f 373d 8c13 723d
00000050: 09e6 cbbc 605c 333d 3346 52bd 01f9 da3d
00000060: 998c 883d ff41 b2bd d016 15bd 7780 9b3b
00000070: 8031 893c 4802 a8bd 32f0 fdbb cf26 b2bd
00000080: 7835 373d 11c7 ab3c a8d0 d33d 46bd a1bd
00000090: 9ae2 ec3d 14b8 a23d 3403 1d3c b80a 88bd
000000a0: 19c1 d3bd fb54 c73d c94d 803c 5f21 e83d
000000b0: b5a8 943d 0800 983d fd39 fe3d 212e 72bd
000000c0: 86ad 573b 0992 b43d 3873 aa3d 3cfe 3a3d
000000d0: c000 ec3c 5413 e03d a796 29bd bc57 acbc
000000e0: 379b 0f3e 640a 9abd 6c5e e93b 9c22 6f3d
000000f0: 2a45 a3bd 56e8 993d db4c e83d a26c d43d
00000100: 412b 603d 5579 c33d 7ea6 b1bd eef6 ad3d
00000110: 6ecb 0d3c 0532 7dbd 5800 e53d 9bd2 123d
00000120: 56c2 cb3c 9822 c1bd f545 bb3d f9eb 763d
00000130: 5ff0 2dbc 40fc 24bc 6d2d 373d 79fc 643d
00000140: 5d80 a0bd 7c56 023e 5b69 143e 9a84 9b3c
00000150: c35f 25bd bf25 fa3d de7f e53d 1c61 8f3d
00000160: 9c88 c4bd 8c45 e2bd 168d a43c c2c7 f63c
00000170: 6cc2 16bd 219b f93d a573 9fbd 679c a8bd
00000180: 2295 babd abe9 2fbd 5864 31bc 6c0d b8bd
00000190: 1359 61bc 7b4c ec3d e64e db3d 197c 863c
000001a0: aea6 22be 2f41 993d f334 87bb aa83 18bd
000001b0: d8f2 0f3d 14d1 d9bd 6fa8 2cbd 7920 a33d
000001c0: f1f3 b8bc 9761 e8bd 45d8 85bd 0d90 f33d
000001d0: 91ad 32bc 43d0 02be 138e 9f3c 9d20 08bc
000001e0: a1d2 efbc 57dc 023e b8ac 09be c45f 24bd
000001f0: 41bb ee3d f188 8fbd a815 8ebc f712 e0bd
00000200: ff83 00be 052a eebc 8246 133e 3aed 613c
00000210: eb8b a23d a301 43bc b344 96bd 2bbc 893d
00000220: b10a 723d f695 30bb eb97 1dbd 1901 7d3d
00000230: b4d4 e73d b721 95bc c58c ef3c e041 f73d
00000240: e4dd 52bc bb0e 103e 3f1f d13d 6d69 6f3d
00000250: 1968 40bb 39d2 86bb 6e96 363d b1de 1cbc
00000260: ba7b fabc 9623 983b 6977 b6bd 003a 833d
00000270: 8d1a 0dbe b4aa 913d d9b3 333d a585 ce3b
00000280: 8347 b3bd 1d97 b03d 1d73 b73d afd5 69bd
00000290: f398 adbd 7ba1 dabd 5c6a fe3d 58c1 6c3d
000002a0: fae7 ef3d 0158 7fbd 9d67 883d 7271 73bb
000002b0: f26f 4ebd 9b91 00bd 4d6a 9b3d d726 ba3d
000002c0: 6cad 0c3d 86a5 b7bd d37a ffbc 56f4 babd
000002d0: e4a0 aa3d d85b a33d 74cc 9f3d f21c c13d
000002e0: 305a 3b3d 358a 8b3d 6e5c d33d 365e 88bd
000002f0: df58 e43c f56b db3d 8e0f dcbd 513a a3bd
00000300: c7fc b53c bf2c 89bd d948 e73a 5075 aabd
00000310: ee99 ac3d d81d c8bc 5942 45bd 3ccf a4bb
00000320: c7d5 073e 2b63 a33d 2a3a d33d 9988 983c
00000330: dcdc 85bd ade5 2e3d aaf6 e7bc f7d5 8bbd
00000340: 0bb8 d4bc 8d29 133e 35b1 bbbd 58e2 933b
00000350: 4553 e23c 6d18 8dbd df35 4a3d 6d5e 8cbc
00000360: 774f 933d 69d3 df3d 4276 de3c 092d a13c
00000370: 6bfb 863c ebae 0abd ee50 86bd df4a b93d
00000380: 2e1a d93c 64f2 19be 1aae df3d 0634 093d
00000390: 2005 423b 50a2 2d3d d976 7abd 3148 ad3c
000003a0: 4e50 e63d f3ad 34bd fe3d 99bd cddc 193d
000003b0: 4d41 b13d fa90 863d fef0 9b3d 6380 7dbd
000003c0: e025 4d3d 45ce d43d 65ae 80bb 7c80 5aba
000003d0: 68ac fabd d2db 9bbd 6101 85bd c25f fcbd
000003e0: b016 14bd f7a7 e8bc 708e 273d 7c2c db3d
000003f0: 26f7 cd3d 962b ec3d 00c4 d03d b19c b33d

lstm.weight_hh_l0 f4 [256, 64]
0.018828617 0.10602338 -0.003715788 -0.018220123 0.051667426 0.017561655 -0.08482957 0.040241443
0.11292065 0.031065317 -0.013039349 0.044564728 -0.102456056 0.07529013 -0.012016037 -0.040705446
0.040019874 0.101533696 -0.09298201 -0.10655154 -0.11066332 0.13034794 0.034350675 -0.11785454
-0.058513746 0.107295915 0.060720995 0.07809708 0.05381967 0.047644593 -0.008227594 -0.060196143
0.0674282 -0.059503317 0.087805204 0.032061763 -0.006772793 -0.07811315 0.12109983 -0.047770448
-0.0031944844 -0.11854903 0.0582706 -0.00084562873 0.030223468 0.022310445 0.061530508 -0.015712205
-0.060692996 -0.10636718 -0.07271733 0.067979775 -0.076874785 -0.0801638 0.0755193 0.049356636
0.07244724 -0.11310478 -0.0014289746 0.06775475 -0.05707035 0.031590417 -0.046794824 -0.11305004
-0.06258209 -0.21816309 -0.0024398242 -0.044743977 -0.22942773 0.121586815 -0.06902405 0.1755069
0.061040778 0.033241622 -0.07267836 -0.011213434 0.020129262 -0.136764 0.0075780028 -0.14711154
0.108317986 0.06894722 0.0034942816 -0.10845299 -0.050754234 -0.11910444 0.09576237 0.15815455
0.06321407 -0.04548304 0.053650465 0.066357516 0.040088274 -0.027420972 -0.12498657 0.096838534
0.09403912 0.07475825 -0.030278197 0.032938223 0.0927817 0.02528038 0.02408244 -0.028557636
-0.08807462 -0.14134653 -0.07109351 -0.13999954 0.06444736 -0.13152082 0.056187935 -0.15114954
-0.049117062 0.05311069 0.12936342 -0.105340645 -0.08055726 -0.017087057 -0.12178359 0.023430832
-0.0029203165 0.0801156 0.0513734 0.09080557 -0.052241556 -0.098959535 -0.20659284 0.1105434
-0.11969783 -0.0009042783 -0.011322139 -0.10376042 -0.07243797 -0.0071284175 0.057855025 -0.045446947
-0.08766573 -0.0045722094 -0.04606899 0.12238691 -0.12887703 0.055895932 -0.0019203897 -0.06692289
0.03262278 0.036138497 0.11000427 0.09885405 -0.0076007475 0.067512535 0.087574236 -0.11114374
-0.004653172 0.07566616 -0.0345339 0.040153082 0.009195726 0.014797462 0.088881165 -0.015118995
-0.054339785 -0.006468429 -0.113027565 -0.0960894 0.07378133 -0.027876586 0.11905813 -0.011824925
0.10067163 -0.048569363 -0.0022291855 0.05628805 0.07375848 0.009522469 0.08585208 -0.04954685
0.006593583 0.012094668 -0.105169795 -0.103727505 0.051027447 0.033229448 0.090806305 -0.12293627
-0.09133488 0.025501475 0.029020699 -0.030825058 -0.093073025 -0.025416344 -0.14320025 -0.06373369
-0.002964452 -0.007800877 -0.023479685 0.113566235 0.06625427 -0.122588456 0.124701306 0.07945229
-0.124420226 -0.027853012 0.09643906 0.08091317 0.07138921 0.10495721 0.11815469 0.028911129
-0.0668305 0.045202434 0.0010907666 0.09808202 0.059389308 -0.06377739 0.06956163 -0.12000944
-0.07196657 -0.04329957 0.05487396 -0.103086755 -0.04573475 -0.09124422 -0.0053159595 0.0947029
-0.09515187 0.056858554 0.009145111 -0.056810364 0.05725795 0.08008045 -0.07495782 0.11493689
0.088619635 0.006878555 0.08803065 -0.09982796 -0.0037995703 -0.069517866 -0.09312686 -0.06689365
0.00069693517 0.01072076 0.1122085 0.10277818 0.075048745 -0.04690197 0.033199355 0.04185894
0.00514764 -0.09895764 -0.08386268 0.06316276 0.019001825 -0.099983305 -0.03848353 0.09551345
00000000: 793e 9a3c c922 d93d 9484 73bb 5e42 95bc
00000010: 39a1 533d 76dd 8f3c 20bb adbd 36d4 243d
00000020: f142 e73d b17c fe3c fea2 55bc 8189 363d
00000030: 7bd4 d1bd b631 9a3d e9de 44bc c1ba 26bd
00000040: e1eb 233d e6f0 cf3d 5a6d bebd b237 dabd
00000050: 73a3 e2bd ee79 053e 4bb3 0c3d b95d f1bd
00000060: 1cac 6fbd f6bd db3d 94b6 783d 5df1 9f3d
00000070: 0472 5c3d fa26 433d 08cd 06bc 3b90 76bd
00000080: cc17 8a3d c0b9 73bd 37d3 b33d 3253 033d
00000090: 4eee ddbb caf9 9fbd 3003 f83d f2aa 43bd
000000a0: 8e5a 51bb d5c9 f2bd 27ad 6e3d 2fad 5dba
000000b0: 3597 f73c 65c4 b63c 6a07 7c3d e2b6 80bc
000000c0: 3899 78bd 09d7 d9bd d3ec 94bd fb38 8b3d
000000d0: 8770 9dbd eb2c a4bd dda9 9a3d 2f2a 4a3d
000000e0: 385f 943d 7ba3 e7bd 6e4c bbba 01c3 8a3d
000000f0: 99c2 69bd f464 013d eeab 3fbd c886 e7bd
00000100: 0a2b 80bd 2566 5fbe 75e5 1fbb 7645 37bd
00000110: 1aef 6abe 8202 f93d 7b5c 8dbd 15b8 333e
00000120: e505 7a3d 5e28 083d 64d8 94bd 8db8 37bc
00000130: 1fe6 a43c dd0b 0cbe e550 f83b 68a4 16be
00000140: d2d5 dd3d 3334 8d3d 5100 653b 9a1c debd
00000150: ace3 4fbd 07ed f3bd 101f c43d 44f3 213e
00000160: 6176 813d 6d4c 3abd 97c0 5b3d 73e6 873d
00000170: 9a33 243d f2a1 e0bc f5f8 ffbd 4853 c63d
00000180: 9597 c03d da1a 993d fb09 f8bc 3bea 063d
00000190: 5504 be3d cd18 cf3c 8a48 c53c b4f1 e9bc
000001a0: 7760 b4bd 25bd 10be 7999 91bd 0a5c 0fbe
000001b0: fafc 833d 65ad 06be 5225 663d f2c6 1abe
000001c0: f92e 49bd 988a 593d d877 043e d6bc d7bd
000001d0: 34fb a4bd 28fa 8bbc ad69 f9bd 04f2 bf3c
000001e0: c862 3fbb a613 a43d ea6c 523d 45f8 b93d
000001f0: 3efb 55bd 4cab cabd 138d 53be 9464 e23d
00000200: 2324 f5bd 170d 6dba 7e80 39bc 5880 d4bd
00000210: 5c5a 94bd 8095 e9bb 64f9 6c3d 9426 3abd
00000220: 178a b3bd 79d2 95bb d6b2 3cbd fda5 fa3d
00000230: 57f8 03be 22f3 643d 96b5 fbba de0e 89bd
00000240: 779f 053d f605 143d eb49 e13d fe73 ca3d
00000250: b10f f9bb 0344 8a3d 1f5a b33d 549f e3bd
00000260: a379 98bb dcf6 9a3d 6b73 0dbd 8f77 243d
00000270: aca9 163c 0e71 723c 5407 b63d a9b5 77bc
00000280: 6593 5ebd 1ef5 d3bb ff7a e7bd 85ca c4bd
00000290: aa1a 973d 705d e4bc c0d4 f33d 55bd 41bc
000002a0: ed2c ce3d abf0 46bd 8717 12bb 4c8e 663d
000002b0: b00e 973d 2104 1c3c 37d3 af3d a3f1 4abd
000002c0: fc0e d83b b728 463c 4363 d7bd 166f d4bd
000002d0: 2802 513d 9a1b 083d a8f8 b93d 03c6 fbbd
000002e0: c80d bbbd 78e8 d03c d1bc ed3c d584 fcbc
000002f0: 129d bebd f035 d0bc 16a3 12be cf86 82bd
00000300: 4047 42bb 809e ffbb 7858 c0bc 6a95 e83d
00000310: 52b0 873d a80f fbbd 6663 ff3d e2b7 a23d
00000320: 08d0 febd 002c e4bc d881 c53d ceb5 a53d
00000330: 8234 923d cef3 d63d 16fb f13d 08d7 ec3c
00000340: 6ede 88bd 3026 393d 0ef8 8e3a 3adf c83d
00000350: 3442 733d b89d 82bd 5476 8e3d 82c7 f5bd
00000360: 3663 93bd e45a 31bd 84c3 603d 261f d3bd
00000370: 5c54 3bbd 40de babd 8031 aebb 98f3 c13d
00000380: fcde c2bd 84e4 683d 60d5 153c fcb1 68bd
00000390: 5087 6a3d 3801 a43d 7c83 99bd 0864 eb3d
000003a0: 367e b53d 8065 e13b 6a49 b43d 9a72 ccbd
000003b0: 3602 79bb 625f 8ebd 4cb9 bebd 8aff 88bd
000003c0: 87b2 363a 20a6 2f3c 92cd e53d 5e7d d23d
000003d0: 28b3 993d 481c 40bd 0cfc 073d 4874 2b3d
000003e0: 89ad a83b 4eaa cabd 32c0 abbd 7a5b 813d
000003f0: b7a9 9b3c 0cc4 ccbd e8a0 1dbd 8e9c c33d

lstm.bias_ih_l0 f4 [256]
-0.11380355 0.069193244 0.045987576 0.03013876 -0.060638152 -0.031948168 -0.0007946225 -0.0217979
0.09377655 -0.08741708 0.02250912 -0.023444716 0.003110695 -0.049938463 0.014885116 0.078190066
0.12317452 0.09561556 0.0028117935 -0.101816766 0.104129456 0.041691896 0.114328295 -0.05619662
-0.10964757 0.08513359 0.10264579 -0.021053776 -0.09116364 0.07334985 0.06816237 0.12691946
-0.10788949 0.0029244295 0.052075244 -0.029123548 -0.08425887 -0.07198229 -0.038635418 -0.012909549
-0.08073188 -0.06323003 -0.028039144 -0.053485505 -0.14396426 0.07369792 -0.08249018 -0.08516687
0.08188634 0.043482225 -0.06617516 -0.026510926 0.03435547 -0.11643679 -0.100837685 0.002610691
0.018424658 -0.005951596 0.0793836 0.013487594 0.058631137 0.010604469 -0.0834175 5.9686907e-05
0.041086182 0.12554824 -0.039656706 0.12448887 0.09185445 0.106247276 -0.13579586 -0.08972241
-0.11458387 0.0642196 0.04233826 0.12434215 -0.032381337 -0.003110648 0.11244145 -0.06757895
-0.020329665 0.0688882 0.06090195 -0.040209442 0.021020636 -0.12015328 -0.121624835 -0.046255976
0.09289912 0.042682424 0.094954945 0.042421497 -0.10993553 -0.103344455 -0.021727 0.057336673
0.049962703 0.010572967 0.0050814073 -0.043927822 -0.07115667 -0.082861334 0.09465825 0.06735373
-0.0028307694 -0.08225172 0.041157544 0.004082574 0.02871883 0.078625076 -0.08042122 0.055781923
0.06833688 -0.064929776 -0.07309078 -0.0582937 -0.07573638 -0.0086911535 0.01569318 0.08007196
-0.017863154 0.10314337 0.09771657 0.06645626 -0.021068813 -0.045474585 -0.09677314 0.10448696
-0.10806522 0.008091605 -0.03315615 0.076895 -0.039312802 0.09947179 -0.010059468 -0.022252953
0.021747649 -0.024939734 -0.018703334 0.10428244 -0.10037115 0.06698947 0.118479386 0.0025310025
0.110305145 -0.119654596 0.054597117 -0.07468672 0.035704173 -0.1033214 -0.11441823 -0.07142907
-0.057302475 -0.026631404 -0.08929209 0.059508383 -0.08931692 0.066352434 0.06930566 0.074665494
-0.06059593 -0.06543894 -0.1244174 0.02874325 0.031353086 -0.039552987 -0.11433832 0.0492417
0.12092221 -0.056853034 -0.12021899 0.055809543 0.13656776 0.026506348 -0.07523475 -0.016078526
-0.03192615 0.0135861635 0.062172033 -0.00835222 0.019721638 -0.07292751 -0.116353706 -0.03571418
0.032393456 0.028945576 0.10019364 0.025041377 0.07113539 -0.01942527 0.054995276 -0.0074343137
0.122445986 0.08129965 0.046620905 -0.05442805 -0.08018392 0.1221023 0.14654419 0.030474085
0.01867517 0.08315889 0.00791332 0.06288327 -0.056780398 -0.00069033226 0.062383816 0.060753334
0.13241391 -0.01660376 0.021391885 -0.025247948 0.13926648 0.08294616 0.008549167 0.049538244
-0.07978341 0.00013549023 -0.08020367 -0.11050183 -0.025159651 0.08130496 -0.074904375 0.083421394
-0.08351368 -0.007128196 -0.019921228 0.073608615 -0.041603357 0.06266649 0.0019309067 -0.053745624
-0.10329441 0.055206187 -0.089635015 0.05363552 0.00851132 0.059420023 -0.033545148 0.026281297
0.053148665 0.04858471 -0.032602698 0.091754876 -0.009120805 -0.116100185 -0.030290606 0.090203874
-0.13909441 -0.10981731 0.06218975 0.027154924 -0.06790186 -0.051863525 0.106754 0.0645493
00000000: d611 e9bd 30b5 8d3d 785d 3c3d 90e5 f63c
00000010: b65f 78bd 15dc 02bd 374e 50ba 8291 b2bc
00000020: eb0d c03d ba07 b3bd 0c65 b83c 220f c0bc
00000030: cddc 4b3b 468c 4cbd b4e0 733c 1d22 a03d
00000040: ec42 fc3d 17d2 c33d 1146 383b 4f85 d0bd
00000050: d341 d53d 1fc5 2a3d f424 ea3d 6d2e 66bd
00000060: e88e e0bd 855a ae3d f537 d23d f878 acbc
00000070: 01b4 babd 7238 963d b698 8b3d 2df7 013e
00000080: 2af5 dcbd c9a7 3f3b da4c 553d 8294 eebc
00000090: ea8f acbd 736b 93bd 2c40 1ebd 9382 53bc
000000a0: c256 a5bd bf7e 81bd 59b2 e5bc 9e13 5bbd
000000b0: 5e6b 13be efee 963d 9df0 a8bd f86b aebd
000000c0: 07b4 a73d 6b1a 323d d886 87bd 712d d9bc
000000d0: 52b8 0c3d 6976 eebd fd83 cebd 2018 2b3b
000000e0: 4fef 963c 9b05 c3bb de93 a23d 12fb 5c3c
000000f0: 3427 703d 5ebe 2d3c cbd6 aabd 5458 7a38
00000100: fc49 283d b88f 003e 126f 22bd 05f4 fe3d
00000110: 301e bc3d 2c98 d93d 120e 0bbe 62c0 b7bd
00000120: f3aa eabd 9185 833d e26a 2d3d 19a7 fe3d
00000130: 4ba2 04bd 03dc 4bbb b447 e63d d566 8abd
00000140: 668a a6bc 4215 8d3d 5374 793d a8b2 24bd
00000150: 7833 ac3c ec12 f6bd 7116 f9bd e876 3dbd
00000160: e541 be3d c4d3 2e3d bd77 c23d 2ac2 2d3d
00000170: e125 e1bd 42a6 d3bd d2fc b1bc dcd9 6a3d
00000180: b1a5 4c3d 3d3a 2d3c ef81 a63b a9ed 33bd
00000190: 97ba 91bd 34b3 a9bd 2fdc c13d c1f0 893d
000001a0: 6e84 39bb 9773 a8bd d094 283d 1dc7 853b
000001b0: c043 eb3c 2f06 a13d e1b3 a4bd 967b 643d
000001c0: 35f4 8b3d e7f9 84bd 9eb0 95bd 60c5 6ebd
000001d0: ad1b 9bbd 5765 0ebc fc8e 803c c5fc a33d
000001e0: c055 92bc d53c d33d a01f c83d 381a 883d
000001f0: 8198 acbc 8f43 3abd ff30 c6bd 42fd d53d
00000200: 4c51 ddbd a792 043c bece 07bd 207b 9d3d
00000210: 7606 21bd deb7 cb3d 78d0 24bc d34b b6bc
00000220: 2028 b23c 6a4e ccbc bc37 99bc 0892 d53d
00000230: 648f cdbd c631 893d 52a5 f23d 2ddf 253b
00000240: aae7 e13d 780d f5bd 3aa1 5f3d 5af5 98bd
00000250: 8a3e 123d 2c9a d3bd 1b54 eabd 6749 92bd
00000260: 00b6 6abd 1a2a dabc c5de b6bd 10bf 733d
00000270: caeb b6bd c9e3 873d 20f0 8d3d 39ea 983d
00000280: 7033 78bd da04 86bd 8dce febd f776 eb3c
00000290: 186c 003d 5002 22bd 362a eabd aab1 493d
000002a0: 10a6 f73d bade 68bd 6035 f6bd 8c98 643d
000002b0: 6bd8 0b3e d723 d93c ad14 9abd 1db7 83bc
000002c0: ffc4 02bd 8098 5e3c 1aa8 7e3d c0d7 08bc
000002d0: 468f a13c 055b 95bd da4a eebd 0849 12bd
000002e0: 00af 043d 461f ed3c 5332 cd3d 9323 cd3c
000002f0: 6eaf 913d be21 9fbc ba42 613d 8b9b f3bb
00000300: f6c4 fa3d 6e80 a63d 90f5 3e3d f2ef 5ebd
00000310: 7837 a4bd c510 fa3d ae0f 163e caa4 f93c
00000320: acfc 983c 354f aa3d dfa6 013c f2c8 803d
00000330: 9092 68bd 6af7 34ba 2c86 7f3d 7dd8 783d
00000340: 8397 073e 9c04 88bc 093e af3c c9d4 cebc
00000350: df9b 0e3e addf a93d ce11 0c3c 9de8 4a3d
00000360: 7c65 a3bd 6212 0e39 d241 a4bd c94e e2bd
00000370: 9d1b cebc 3783 a63d 7767 99bd d6d8 aa3d
00000380: 3809 abbd a493 e9bb d831 a3bc 1dc0 963d
00000390: 4868 2abd 4a57 803d 7a16 fd3a 5f24 5cbd
000003a0: 058c d3bd e21f 623d 9092 b7bd ebb0 5b3d
000003b0: 1073 0b3c 6962 733d a366 09bd e04b d73c
000003c0: 6ab2 593d c300 473d 688a 05bd fbe9 bb3d
000003d0: 6e6f 15bc efc5 edbd 0124 f8bc cfbc b83d
000003e0: c46e 0ebe e6e7 e0bd aeba 7e3d 0174 de3c
000003f0: 2110 8bbd d96e 54bd d7a1 da3d 6c32 843d

lstm.bias_hh_l0 f4 [256]
0.0058887177 0.08530246 0.0598084 -0.030994907 0.033414233 0.101299256 0.09051266 0.08107491
-0.07103204 0.09755179 0.100773536 -0.024612268 0.1268292 -0.107320696 -0.07626136 0.019837294
0.06169859 -0.104969084 0.0063943737 0.07309193 -0.061466105 0.043943062 0.09589926 0.015815524
0.12637195 -0.030991577 -0.0066577215 -0.013208366 0.09369119 0.0028911827 -0.06975168 -0.10153968
-0.073048964 0.07869546 -0.104345635 -0.07850721 -0.04996927 0.12542462 8.411205e-05 0.074373566
0.051830065 -0.10057061 -0.08727879 0.11586205 -0.06885979 -0.109692484 0.13048367 0.058135178
0.13206834 -0.10357543 0.08989447 -0.050144117 -0.09068259 -0.031773277 -0.066441305 0.1332964
0.049017854 0.11772958 -0.118102625 -0.020732842 -0.03878127 0.07392698 -0.04080116 0.01021882
0.06990628 0.06606781 -0.12384675 0.045726 -0.07531187 -0.0044448427 -0.055595096 0.051170163
0.06952811 0.107277915 -0.09956528 0.0034705435 0.0028527845 0.03187455 0.035617843 0.114414476
-0.0839245 -0.091955744 0.1038055 -0.031272992 -0.009357014 -0.1358127 0.00063388335 -0.07176787
0.008236155 -0.056340083 0.121336766 -0.09198894 -0.014698608 -0.07713031 0.057454515 0.03624392
0.03750365 0.017526306 -0.08520488 0.09450106 0.122389175 0.0025198292 0.08103263 0.06256102
-0.025428165 -0.092589326 -0.05632614 0.09904753 -0.048149142 0.14579144 0.10829133 -0.1054114
-0.06529791 -0.08778224 0.1084317 -0.051383883 0.061260827 -0.034418996 -0.020766802 0.069826104
0.10205355 0.008929578 -0.05551483 0.06706056 0.12316982 0.008859852 0.055364117 -0.09493034
0.002547091 0.04711857 -0.023484167 0.019484565 0.09470737 0.0235613 0.049984727 -0.07526185
-0.0517302 0.11153961 0.034471285 0.05479054 0.012212549 -0.11356047 0.11398129 0.031357575
0.015608636 -0.024743248 0.049779005 0.123264074 0.07893782 -0.04668063 -0.074889325 -0.021406762
0.031273484 -0.055004016 0.07539805 -0.0095274 0.12531829 -0.10538143 -0.08012058 -0.016402114
-0.11429469 0.062605605 0.026890446 0.005280721 -0.08744982 -0.12499744 -0.018150896 0.12565653
-0.10114665 -0.021878708 -0.054884467 -0.092935964 0.15316437 0.041950043 -0.067573145 -0.1002075
0.105812125 -0.11640133 -0.02575683 -0.03804633 -0.09623326 0.023095774 0.059040323 -0.028091013
0.08443098 -0.06275462 -0.021421002 0.02969717 0.10055202 0.104243755 -0.014528006 -0.08916803
0.11017606 0.11329061 0.12716788 -0.022911381 -0.0011125742 -0.118670054 0.045147803 0.0074200323
0.01367903 0.09017994 0.016394539 -0.016384615 0.06857684 0.115157425 0.053590324 0.062018923
0.003195439 -0.08639671 -0.05691582 -0.117822215 0.10734596 -0.108255126 0.06632881 0.13833404
0.08624367 -0.06911155 -0.027364897 -0.025035424 0.023593543 0.16347203 0.0038589376 0.09293952
-0.085347444 -0.007532215 -0.0954135 -0.05994373 0.08236915 0.0351579 0.034974396 -0.03883458
-0.0074092243 0.029528957 0.037788525 -0.07935494 0.014695094 0.13022251 -0.03282004 -0.053090706
-0.010931806 -0.044890765 -0.043341704 0.086815104 0.06440992 0.06759172 -0.10804456 0.02262818
-0.09629664 -0.08860709 0.032557346 -0.072015055 0.074318826 0.00804816 0.073154576 -0.06508249
00000000: 25f6 c03b 0eb3 ae3d a7f9 743d 08e9 fdbc
00000010: 5ddd 083d fc75 cf3d b45e b93d 9a0a a63d
00000020: 3f79 91bd 3cc9 c73d 5b62 ce3d ab9f c9bc
00000030: 84df 013e f4ca dbbd ea2e 9cbd d281 a23c
00000040: a9b7 7c3d 08fa d6bd e587 d13b 39b1 953d
00000050: e2c3 7bbd a4fd 333d d566 c43d 8f8f 813c
00000060: a667 013e 0ce2 fdbc 0429 dabb e767 58bc
00000070: 2be1 bf3d ff79 3d3b f8d9 8ebd 09f4 cfbd
00000080: b29a 95bd 162b a13d 2ab3 d5bd 63c8 a0bd
00000090: 94ac 4cbd 506f 003e 5065 b038 2b51 983d
000000a0: c34b 543d f7f7 cdbd 39bf b2bd 1549 ed3d
000000b0: 5d06 8dbd 74a6 e0bd 839d 053e 271f 6e3d
000000c0: ec3c 073e 5b1f d4bd 981a b83d eb63 4dbd
000000d0: cbb7 b9bd b224 02bd 6112 88bd da7e 083e
000000e0: f2c6 483d 351c f13d cadf f1bd ecd7 a9bc
000000f0: 1cd9 1ebd 0767 973d 1e1f 27bd d66c 273c
00000100: 062b 8f3d 8f4e 873d 5da3 fdbd 304b 3b3d
00000110: 1c3d 9abd 0ba6 91bb afb7 63bd ce97 513d
00000120: c164 8e3d 86b4 db3d e2e8 cbbd 0f72 633b
00000130: c8f5 3a3b e38e 023d 04e4 113d 2352 ea3d
00000140: 9ce0 abbd 4b53 bcbd fa97 d43d 1c18 00bd
00000150: 294e 19bc 7c12 0bbe 312b 263a 08fb 92bd
00000160: f0f0 063c dcc4 66bd 697f f83d b364 bcbd
00000170: 6ed2 70bc 7ff6 9dbd 6d55 6b3d 8174 143d
00000180: 6d9d 193d 5493 8f3c e57f aebd c689 c13d
00000190: 2da7 fa3d b823 253b 6ff4 a53d fe1f 803d
000001a0: ba4e d0bc 799f bdbd 3db6 66bd 6ed9 ca3d
000001b0: 0938 45bd 5a4a 153e d8c7 dd3d efe1 d7bd
000001c0: e9ba 85bd 2dc7 b3bd 7011 de3d e877 52bd
000001d0: a2ec 7a3d effa 0cbd 241f aabc fd00 8f3d
000001e0: 7401 d13d 5d4d 123c 8563 63bd 0c57 893d
000001f0: 7540 fc3d ea28 113c 7cc5 623d d76a c2bd
00000200: 19ed 263b 67ff 403d de61 c0bc 189e 9f3c
00000210: f0f5 c13d a103 c13c c9bc 4c3d e322 9abd
00000220: 0ce3 53bd e16e e43d c331 0d3d 0c6c 603d
00000230: 2517 483c 6492 e8bd 066f e93d cd70 003d
00000240: 5dbb 7f3c 5ab2 cabc 12e5 4b3d e071 fc3d
00000250: 27aa a13d 3034 3fbd 935f 99bd 3c5d afbc
00000260: a018 003d e44b 61bd 4b6a 9a3d d018 1cbc
00000270: 7053 003e 38d2 d7bd 4216 a4bd ba5d 86bc
00000280: 5613 eabd 5e37 803d 5a49 dc3c e609 ad3b
00000290: e418 b3bd a8fe ffbd 30b1 94bc 1bac 003e
000002a0: fa25 cfbd fa3a b3bc 89ce 60bd 3655 bebd
000002b0: 1fd7 1c3e cfd3 2b3d ca63 8abd 9739 cdbd
000002c0: 07b4 d83d d263 eebd fdff d2bc 78d6 1bbd
000002d0: f215 c5bd 5933 bd3c 44d4 713d 201f e6bc
000002e0: 26ea ac3d 7f85 80bd 197b afbc 7b47 f33c
000002f0: 38ee cd3d c07d d53d e006 6ebc ba9d b6bd
00000300: fca3 e13d e804 e83d 4c38 023e a6b0 bbbc
00000310: ccd3 91ba 4909 f3bd e7ec 383d be23 f33b
00000320: 031e 603c 43b0 b83d d74d 863c 0739 86bc
00000330: 0472 8c3d a8d7 eb3d 8781 5b3d 8e07 7e3d
00000340: 926a 513b c2f0 b0bd 9020 69bd c64c f1bd
00000350: 33d8 db3d ddb4 ddbd 66d7 873d 70a7 0d3e
00000360: 85a0 b03d 5b8a 8dbd 592c e0bc 1717 cdbc
00000370: 3f47 c13c 3665 273e 3be6 7c3b 1357 be3d
00000380: a4ca aebd cdd0 f6bb 2768 c3bd 8e87 75bd
00000390: 28b1 a83d bb01 103d 5041 0f3d 0211 1fbd
000003a0: 14c9 f2bb b6e6 f13c 24c8 1a3d d884 a2bd
000003b0: b1c3 703c 0d59 053e 4e6e 06bd a475 59bd
000003c0: 511b 33bc 61df 37bd 1287 31bd 1ecc b13d
000003d0: 59e9 833d 876d 8a3d 7746 ddbd bc5e b93c
000003e0: 2c37 c5bd a277 b5bd da5a 053d a17c 93bd
000003f0: 7834 983d 6edc 033c 11d2 953d f849 85bd

lstm.weight_ih_l1 f4 [256, 64]
0.11415023 -0.004714145 -0.021396803 -0.15181504 0.017672734 0.030593803 0.07540698 -0.045754272
0.12679192 0.031091496 0.09998868 0.060772818 0.05526815 -0.022942338 0.106552444 0.10065166
-0.016584465 0.037800837 -0.15345594 -0.09307792 0.09350759 0.08305388 -0.058371685 -0.046024732
-0.0075347596 -0.07975811 0.003946357 -0.07606973 -0.09109447 -0.119330086 0.033378307 0.14926986
-0.056311384 0.024758758 -0.0023571346 -0.044977315 0.011896377 0.06950165 -0.0967371 -0.036555793
-0.06545644 0.014514418 0.043005038 0.043681998 -0.023363817 0.047170527 -0.07426311 0.020584812
0.049277563 -0.10189179 -0.17646086 -0.0075777206 -0.09967497 -0.048474204 -0.008868327 -0.025055684
0.061558302 0.09332918 0.085502006 0.11637449 -0.13927639 -0.14878869 -0.108778 -0.09166927
-0.105926454 -0.110364586 -0.05735691 0.039716613 -0.048872422 0.09156592 -0.100487195 0.07309939
0.06668186 -0.09281216 0.14390053 -0.15389492 -0.06680239 0.025565727 0.07350802 -0.13571173
-0.07258243 -0.031984545 -0.06603401 -0.11997875 0.21081686 -0.078390256 0.016227229 -0.13165139
0.076843135 -0.03180219 -0.029822432 -0.023760535 -0.08326446 -0.1694145 0.025525626 0.066207975
0.13294592 -0.09863256 -0.07369318 -0.05014498 -0.07584275 -0.051936712 -0.11715535 0.052435063
0.0347927 0.088580124 -0.059595272 -0.0042818664 0.11345275 0.05417562 -0.049384687 -0.017938929
-0.030403046 0.124099076 -0.054331593 0.038664814 -0.020807596 -0.07579981 -0.092005186 0.039792124
0.05257886 -0.0993648 -0.06485928 0.07341015 -0.103859596 -0.041599106 -0.050109424 -0.08718184
0.025883092 0.0056958436 -0.05850583 -0.07800649 0.02635693 -0.11765972 -0.09400874 -0.11952391
0.06425955 0.018437112 0.12417979 0.014804758 -0.022383852 -0.108743355 0.15368004 -0.043936394
-0.017465105 -0.012295228 0.13673554 0.0760374 -0.032309853 0.041769475 -0.11351726 0.0070904735
0.13843872 0.031276453 0.017696558 0.07181627 0.04264023 0.23540248 0.046316065 -0.11705947
0.06822866 0.0270038 0.0610767 0.103729345 -0.06364491 0.061719425 -0.038494203 0.101637214
-0.03473148 -0.128891 -0.08586466 -0.09618067 -0.02909139 -0.046538696 -0.044915207 -0.16438012
0.011229782 0.05995269 -0.021626618 0.03861188 -0.04621321 -0.09694862 -0.07610933 -0.0783903
0.06834389 0.029649597 -0.0130294785 0.1475214 0.045788947 0.034781706 0.22684288 -0.041032612
0.07517261 -0.21054979 -0.078063846 0.09462211 -0.015473691 0.073275976 -0.06443943 -0.027167708
0.09307391 0.16303465 -0.04761361 0.16050297 0.14294714 -0.16896692 -0.08596298 -0.023782657
0.03609596 -0.1951401 0.014056706 -0.0721313 -0.10170133 0.024172844 0.08913505 -0.10171611
0.052704256 0.0229799 -0.08523601 -0.11354122 0.022237401 0.12054879 0.002602951 0.15765844
0.047703497 0.02973339 0.048699263 -0.10367736 0.100828454 -0.17001128 -0.071158685 -0.012731788
0.09553131 0.03460208 -0.06284887 -0.019340092 0.12692037 0.17223951 -0.016936291 -0.11722913
0.004746898 0.009660542 0.12418089 -0.047858596 -0.0054007783 -0.09420745 -0.018647501 -0.10507516
0.062787995 -0.087777905 -0.00735205 0.19962181 -0.037229236 0.13651949 0.14648569 0.053686168
00000000: 99c7 e93d 1d79 9abb 5948 afbc 6775 1bbe
00000010: 69c6 903c db9f fa3c fa6e 9a3d d568 3bbd
00000020: bed5 013e 98b3 fe3c ddc6 cc3d ebec 783d
00000030: db60 623d 92f1 bbbc 2b38 da3d 7522 ce3d
00000040: 25dc 87bc 0dd5 1a3d 8e23 1dbe a39f bebd
00000050: e880 bf3d 2718 aa3d 2617 6fbd 6e84 3cbd
00000060: 25e6 f6bb 3858 a3bd 7150 813b 72ca 9bbd
00000070: bd8f babd 5563 f4bd b1b7 083d 33da 183e
00000080: c4a6 66bd e1d2 ca3c 287a 1abb 223a 38bd
00000090: 06e9 423c e256 8e3d 1a1e c6bd 87bb 15bd
000000a0: 070e 86bd e2cd 6d3c 0d26 303d e5eb 323d
000000b0: 7a65 bfbc e235 413d 4217 98bd 7ba1 a83c
000000c0: 45d7 493d a5ac d0bd 28b2 34be 874e f8bb
000000d0: 6422 ccbd e38c 46bd 764c 11bc 9441 cdbc
000000e0: 8f24 7c3d 5e23 bf3d ad1b af3d c055 ee3d
000000f0: 789e 0ebe 105c 18be 00c7 debd 19bd bbbd
00000100: f8ef d8bd d406 e2bd 14ef 6abd e3ad 223d
00000110: 732e 48bd ea86 bb3d 3bcc cdbd 22b5 953d
00000120: 8090 883d 4d14 bebd a95a 133e a196 1dbe
00000130: b1cf 88bd 376f d13c 5f8b 963d 04f8 0abe
00000140: 19a6 94bd 3a02 03bd d73c 87bd 6bb7 f5bd
00000150: 60e0 573e 128b a0bd f7ee 843c 9fcf 06be
00000160: ef5f 9d3d 0343 02bd 2c4e f4bc 74a5 c2bc
00000170: 8f86 aabd ff7a 2dbe 1e1b d13c 0c98 873d
00000180: fa22 083e deff c9bd 73ec 96bd d364 4dbd
00000190: 7253 9bbd 97bb 54bd 25ef efbd 26c6 563d
000001a0: ca82 0e3d 7f69 b53d 2c1a 74bd e64e 8cbb
000001b0: ea59 e83d 41e7 5d3d 9947 4abd a9f4 92bc
000001c0: cf0f f9bc a827 fe3d ce8a 5ebd ff5e 1e3d
000001d0: b174 aabc ee3c 9bbd 376d bcbd 11fd 223d
000001e0: ee5c 573d c67f cbbd f1d4 84bd 1058 963d
000001f0: 57b4 d4bd d363 2abd 8a3f 4dbd 648c b2bd
00000200: c708 d43c 33a4 ba3b cfa3 6fbd dec1 9fbd
00000210: 7dea d73c 94f7 f0bd a787 c0bd f4c8 f4bd
00000220: 839a 833d 6d09 973c f951 fe3d a88f 723c
00000230: 575e b7bc d6b4 debd 4d5e 1d3e a6f6 33bd
00000240: fb12 8fbc ed71 49bc 6704 0c3e 7fb9 9b3d
00000250: 5657 04bd 7816 2b3d bd7b e8bd 3457 e83b
00000260: e1c2 0d3e bd1b 003d 5ff8 903c 6914 933d
00000270: 86a7 2e3d 590d 713e eab5 3d3d e0bc efbd
00000280: 78bb 8b3d 1337 dd3c 902b 7a3d 0d70 d43d
00000290: 4358 82bd 82cd 7c3d 19ac 1dbd 2c27 d03d
000002a0: 9942 0ebd 01fc 03be d0d9 afbd 5ffa c4bd
000002b0: 1151 eebc 5c9f 3ebd 02f9 37bd 4353 28be
000002c0: 1ffd 373c f490 753d 4e2a b1bc 7e27 1e3d
000002d0: 104a 3dbd 008d c6bd 35df 9bbd 188b a0bd
000002e0: e2f7 8b3d b6e3 f23c 9879 55bc da0f 173e
000002f0: 318d 3b3d 4377 0e3d 8049 683e d011 28bd
00000300: 19f4 993d 5d9a 57be f0df 9fbd 3dc9 c13d
00000310: 5d85 7dbc b711 963d d2f8 83bd d08e debc
00000320: 899d be3d 8ef2 263e 7d06 43bd e45a 243e
00000330: bc60 123e aa05 2dbe 5c0d b0bd d9d3 c2bc
00000340: 5bd9 133d ced2 47be 194e 663c 93b9 93bd
00000350: c948 d0bd 2106 c63c 708c b63d 8950 d0bd
00000360: 6be0 573d 5840 bc3c 3890 aebd 4d88 e8bd
00000370: 362b b63c 49e2 f63d 4596 2a3b 3771 213e
00000380: be64 433d 7093 f33c e178 473d cc54 d4bd
00000390: 267f ce3d 7017 2ebe a5bb 91bd fd98 50bc
000003a0: eba5 c33d e9ba 0d3d e9b6 80bd 1d6f 9ebc
000003b0: 6af7 013e 8e5f 303e fabd 8abc d315 f0bd
000003c0: de8b 9b3b 4047 1e3c 8d52 fe3d 6007 44bd
000003d0: 03f9 b0bb d6ef c0bd a5c2 98bc a531 d7bd
000003e0: fe96 803d e7c4 b3bd 77e9 f0bb a969 4c3e
000003f0: af7d 18bd c4cb 0b3e 5800 163e 07e6 5b3d

lstm.weight_hh_l1 f4 [256, 64]
0.09676124 0.027582133 -0.23806527 -0.082726836 -0.113528654 -0.036913287 0.065537155 -0.09534011
-0.09170046 0.06907411 -0.026186664 -0.0152057195 0.018342545 -0.07312675 0.050890587 -0.09986645
-0.10799059 0.036816128 -0.0742825 0.035489727 0.03549522 -0.09565361 -0.09443261 0.07547197
0.01837404 -0.009552862 -0.06354753 0.07547457 -0.02462993 -0.030538157 0.09578494 -0.04009293
0.14422001 0.013971212 0.08092345 -0.10059862 -0.13370855 0.05029843 -0.10590534 -0.09939413
-0.066115625 -0.035722557 0.079789214 0.04270756 0.11160378 0.11593097 -0.073084354 -0.023724062
-0.02262469 0.024759512 0.063564986 -0.08606401 -0.012792977 0.077860035 -0.0063908887 0.022402607
-0.08351398 0.10885854 0.10045082 -0.11944062 0.037068237 0.025914412 0.0350869 -0.09090123
0.09321129 0.13874222 0.02077311 0.09788079 -0.015688118 0.11022336 0.010291133 -0.08120827
-0.12869474 -0.037155706 0.08592333 0.039722092 -0.12665403 -0.12612376 0.08994767 -0.08767855
-0.18311472 -0.09646705 0.013995241 0.107508495 0.020074377 0.08643696 0.027720548 -0.08327246
-0.13821554 -0.06241673 0.046843678 -0.10807738 -0.059898503 0.14997196 0.081028074 -0.018794505
0.02319173 -0.033438362 0.07338009 -0.06262339 0.034969576 -0.022268299 -0.106259994 0.06639281
0.014054199 0.032701842 -0.08083165 0.12873177 -0.011412779 0.10791287 -0.113790676 0.07073043
0.06433986 0.066504195 0.11103805 -0.030348007 -0.072890624 -0.016940808 0.096104234 0.17185952
0.037398312 0.09034054 0.0636271 -0.07874038 0.038388893 0.1085762 0.02482375 -0.087586805
-0.100238696 0.015125271 -0.10815509 -0.1475397 -0.14055385 -0.08796804 -0.057598367 -0.022558006
0.02541985 0.123044 -0.06661428 0.023153791 0.053757075 -0.13241687 0.098364286 -0.0071595465
-0.15431024 0.09312788 -0.11240418 0.12021896 0.04017741 0.066477366 -0.086596556 -0.11515847
0.053312935 -0.049862713 0.12691605 0.13684313 -0.052607015 0.048635393 0.14445034 0.1061926
0.12602589 -0.10256995 -0.042269286 0.10313918 0.034253217 0.043823693 0.026385427 0.062997796
0.010850603 -0.12166821 -0.08852039 -0.08960174 -0.08557456 -0.04715304 0.04136411 0.079168804
0.0765281 -0.054906428 0.062016185 -0.050997175 -0.037777375 -0.0016086855 -0.0716491 0.011280211
0.09165778 -0.060615942 -0.07217018 -0.115188986 0.08090717 -0.081205815 -0.0015499254 0.12260879
0.050810143 -0.11590906 -0.0964406 -0.20388448 0.039577447 0.030763915 0.010030671 0.080065735
0.049597967 0.20359163 -0.00886346 0.11680323 -0.0214199 -0.15168646 -0.08475166 0.027788756
-0.11998285 -0.014404834 0.01436528 -0.039110634 0.015709955 0.06161442 0.018589333 -0.06256928
-0.09660567 0.10737339 0.08342591 0.07653645 0.017579012 -0.019404257 -0.07095003 0.02478385
0.008977003 -0.082238734 0.020229435 0.07819775 -0.09193529 -0.04978584 -0.10738591 0.08164143
-0.033462636 0.021854563 -0.081876 0.17531244 -0.021682601 0.008558041 0.02727292 -0.06351602
-0.040915918 -0.17345837 -0.1385046 -0.0072802817 0.05825524 0.11850365 0.018393015 0.16225745
-0.016357105 -0.078913115 -0.02993755 -0.11707466 -0.07497766 -0.026630748 0.14297563 -0.030165639
00000000: c22a c63d edf3 e13c 62c7 73be b06c a9bd
00000010: b681 e8bd 6332 17bd 5838 863d ad41 c3bd
00000020: 73cd bbbd ba76 8d3d 6a85 d6bc 6921 79bc
00000030: 1b43 963c 7ac3 95bd a672 503d c886 ccbd
00000040: 2c2a ddbd 82cc 163d 6c21 98bd ad5d 113d
00000050: 7063 113d 0ae6 c3bd e265 c1bd 0c91 9a3d
00000060: 2885 963c 9b83 1cbc 3525 82bd 6992 9a3d
00000070: b5c4 c9bc 282b fabc e52a c43d 7c38 24bd
00000080: 69ae 133e 83e7 643c 32bb a53d a606 cebd
00000090: e5ea 08be ba05 4e3d e6e4 d8bd 268f cbbd
000000a0: a167 87bd d151 12bd 8768 a33d 1fee 2e3d
000000b0: 8690 e43d 376d ed3d 40ad 95bd f758 c2bc
000000c0: 6a57 b9bc 76d4 ca3c 5c2e 823d 5442 b0bd
000000d0: a299 51bc 1575 9f3d a96a d1bb ac85 b73c
000000e0: 6109 abbd 3af1 de3d 29b9 cd3d 499d f4bd
000000f0: ddd4 173d 764a d43c 48b7 0f3d 6d2a babd
00000100: 90e5 be3d 7112 0e3e 5f2c aa3c b975 c83d
00000110: 5e84 80bc c9bc e13d 249c 283c 8550 a6bd
00000120: 8ec8 03be 9530 18bd 92f8 af3d a2b3 223d
00000130: 98b1 01be 9626 01be 7c36 b83d d090 b3bd
00000140: 6d82 3bbe 8490 c5bd 4c4c 653c 6a2d dc3d
00000150: 0573 a43c dc05 b13d 3416 e33c c08a aabd
00000160: 6088 0dbe afa8 7fbd 28df 3f3d ac57 ddbd
00000170: 2258 75bd 4092 193e 0cf2 a53d eff6 99bc
00000180: 95fc bd3c aaf6 08bd 4d48 963d b140 80bd
00000190: 423c 0f3d 026c b6bc d79e d9bd f4f8 873d
000001a0: 9543 663c 5ef2 053d 108b a5bd 43d2 033e
000001b0: aafc 3abc 6c01 dd3d 160b e9bd 1edb 903d
000001c0: 9ec4 833d 5a33 883d eb67 e33d 629c f8bc
000001d0: ae47 95bd 73c7 8abc 4cd2 c43d f1fb 2f3e
000001e0: f92e 193d 7604 b93d ed4e 823d a342 a1bd
000001f0: ac3d 1d3d 335d de3d 2d5b cb3c b660 b3bd
00000200: f249 cdbd fccf 773c 6a80 ddbd a614 17be
00000210: 59ed 0fbe 9628 b4bd 44ec 6bbd 91cb b8bc
00000220: 4a3d d03c 7efe fb3d 116d 88bd 05ad bd3c
00000230: 6130 5c3d 4a98 07be 3773 c93d a19a eabb
00000240: 8103 1ebe d4b9 be3d 2a34 e6bd 5c35 f63d
00000250: 1191 243d 4925 883d 8959 b1bd 34d8 ebbd
00000260: aa5e 5a3d d83c 4cbd 48f6 013e 9b20 0c3e
00000270: 747a 57bd e835 473d caea 133e 827b d93d
00000280: ee0c 013e 3210 d2bd 8f22 2dbd a23a d33d
00000290: 1a4d 0c3d 7980 333d 4026 d83c fd04 813d
000002a0: bac6 313c 2f2d f9bd 2e4a b5bd 1e81 b7bd
000002b0: b741 afbd 8c23 41bd 6a6d 293d 4123 a23d
000002c0: c4ba 9c3d 90e5 60bd af04 7e3d 6ae2 50bd
000002d0: 73bc 1abd 87da d2ba c3bc 92bd a2d0 383c
000002e0: 13b7 bb3d 6c48 78bd f6cd 93bd 34e8 ebbd
000002f0: a9b2 a53d 3c4f a6bd de26 cbba 511a fb3d
00000300: 4c1e 503d bb61 edbd a682 c5bd 18c7 50be
00000310: f61b 223d 9b04 fc3c af57 243c 81f9 a33d
00000320: 3d27 4b3d 537a 503e 0c38 11bc 8836 ef3d
00000330: c978 afbc b253 1bbe 4792 adbd 3fa5 e33c
00000340: 92b9 f5bd 4102 6cbc 5a5c 6b3c 7932 20bd
00000350: 2ab2 803c 675f 7c3d a848 983c 5324 80bd
00000360: 32d9 c5bd 94e6 db3d 34db aa3d 24bf 9c3d
00000370: dc01 903c adf5 9ebc 404e 91bd 8007 cb3c
00000380: 4814 133c c86c a8bd 33b8 a53c 2426 a03d
00000390: 9248 bcbd 3dec 4bbd 25ed dbbd 9f33 a73d
000003a0: 1e10 09bd 5708 b33c 9bae a7bd 1b85 333e
000003b0: b69f b1bc 0737 0c3c 756b df3c b014 82bd
000003c0: 7397 27bd 129f 31be 26d4 0dbe 6e8f eebb
000003d0: 0c9d 6e3d 0bb2 f23d f3ac 963c d126 263e
000003e0: 56ff 85bc 339d a1bd 983f f5bc d7c4 efbd
000003f0: e38d 99bd ba28 dabc 3468 123e ee1d f7bc

lstm.bias_ih_l1 f4 [256]
-0.076259784 0.11507179 0.103191145 0.108551055 0.12574157 0.09177516 -0.009205529 0.024207378
0.03531345 0.058504175 0.0992243 0.18341702 0.19431101 0.07510196 0.13415977 0.042387445
0.021091238 0.049989138 0.08903245 0.05959505 0.21891937 0.0343555 -0.046879943 0.07599269
-0.015302244 -0.07264444 0.020750217 0.21739145 -0.03306301 0.15668207 -0.08815875 0.16428496
0.20011003 0.10067855 0.0009925407 0.03416739 0.123213395 0.07068862 0.01677327 0.14780135
-0.046023663 0.09127078 0.14476919 0.15865238 0.105605535 -0.017196469 -0.09354844 0.1440954
0.044057086 0.040879115 -0.025502732 0.05249691 0.13817096 0.10702125 0.19788639 0.012187078
-0.035793573 0.0867651 0.07898187 0.14701684 0.016606525 -0.022884095 -0.018561622 -0.072662
0.121424854 -0.06512048 -0.06655588 0.00059280964 0.07350873 -0.06755945 -0.003294487 0.024726162
0.09414436 -0.033345748 0.055420928 0.06972195 -0.025315562 -0.02304273 0.08995963 -0.116384774
0.13342437 0.117770284 -0.009481278 -0.06723844 -0.027882002 -0.10104407 0.023724513 -0.037981052
0.08032969 0.107655995 0.11622763 0.07301249 -0.012795049 -0.04633712 0.08153611 -0.06978408
-0.08053423 0.13509719 -0.07157921 0.023493843 -0.030673463 -0.071921654 0.034188136 0.06793472
-0.04090701 0.103542656 0.017231515 0.0831692 0.0780838 -0.009553182 0.051270448 0.047483515
-0.004717226 -0.120746545 0.10874888 -0.055941436 0.09191868 -0.028162647 0.01835569 0.1467851
0.05281814 0.031163061 0.075965606 0.005525598 0.072538435 0.05668601 0.108101904 0.047569368
-0.030161373 -0.056548867 -0.019683374 -0.14143823 0.051069103 -0.125949 -0.039970145 0.12490709
-0.0068193795 -0.052810013 -0.02433292 -0.07159316 0.11783589 0.041713275 -0.053450882 0.1372351
-0.05061319 -0.017579418 -0.102614105 0.11423233 -0.14530924 -0.078292474 0.0361808 0.096353374
-0.077304766 0.06850627 -0.0428378 -0.02517749 -0.009040501 0.1245176 0.068682425 -0.074322194
-0.07635956 -0.16135868 0.08152657 0.1257381 0.04318338 0.0012801707 0.07526875 -0.018852348
-0.08234106 -0.025913669 0.0434643 0.09319055 -0.13606347 -0.045360424 0.04253421 0.029963119
0.03856416 0.08292476 -0.0077987993 0.1670649 -0.13176164 0.048988983 0.08285756 0.05076832
0.05493311 -0.0038447143 -0.10171755 0.08728283 0.06202846 -0.12048422 -0.108520575 -0.031074544
-0.0806723 -0.078976035 0.052541174 0.08692905 0.098913476 0.09205623 0.12168713 0.08899006
0.016864227 0.0995128 -0.0014346081 0.110942416 0.1303873 0.04779566 0.12889042 0.0073366463
0.17412762 0.004389233 0.1255268 -0.0015615379 0.23007129 0.16738951 0.09509375 0.08151871
0.003000478 0.04841397 -0.028621316 0.018037705 0.15663664 -0.0026549394 -0.11714291 0.079617016
0.0715332 0.029565949 0.089141145 0.18221435 -0.011461243 0.010561068 -0.026817352 -0.05399071
0.022235505 0.06711857 0.09459431 0.047346763 -0.0957456 0.050774407 0.00096744875 0.031028843
-0.04344147 0.101154186 0.1333228 -0.05432438 0.1804372 0.1660667 0.027020123 0.08162359
-0.032483876 0.21202213 0.107018106 0.17299226 -0.08683905 0.034619413 0.021056412 -0.094268866
00000000: 172e 9cbd c2aa eb3d e155 d33d 0450 de3d
00000010: 66c2 003e 9df4 bb3d c9d2 16bc 8d4e c63c
00000020: d6a4 103d 13a2 6f3d 1c36 cb3d acd1 3b3e
00000030: 77f9 463e 0ecf 993d 2e61 093e 759e 2d3d
00000040: 88c7 ac3c 69c1 4c3d a556 b63d f019 743d
00000050: 662c 603e 5ab8 0c3d 2f05 40bd 0ea2 9b3d
00000060: 43b6 7abc 9cc6 94bd 5cfc a93c dd9b 5e3e
00000070: 146d 07bd 4471 203e 938c b4bd 513a 283e
00000080: a5e9 4c3e 8e30 ce3d 2418 823a 1bf3 0b3d
00000090: 4e57 fc3d 32c5 903d 1968 893c 3d59 173e
000000a0: 4f83 3cbd 2dec ba3d 603e 143e c575 223e
000000b0: b747 d83d 9cdf 8cbc 5396 bfbd bf8d 133e
000000c0: 3475 343d dc70 273d 1beb d0bc 0007 573d
000000d0: b07c 0d3e f52d db3d bba2 4a3e 4fac 473c
000000e0: 489c 12bd e7b1 b13d 3fc1 a13d 958b 163e
000000f0: 680a 883c 6d77 bbbc 8b0e 98bc d1cf 94bd
00000100: 98ad f83d e35d 85bd 734e 88bd c866 1b3a
00000110: bf8b 963d 9c5c 8abd 52e8 57bb 858e ca3c
00000120: c2ce c03d 8d95 08bd 0e01 633d 62ca 8e3d
00000130: 9562 cfbc 1bc4 bcbc c13c b83d 245b eebd
00000140: 66a0 083e 8c31 f13d 5d57 1bbc 4fb4 89bd
00000150: cc68 e4bc 32f0 cebd e959 c23c 0592 1bbd
00000160: e483 a43d bf7a dc3d c008 ee3d 9387 953d
00000170: 53a2 51bc fecb 3dbd 67fc a63d f5ea 8ebd
00000180: 21ef a4bd eb56 0a3e 1f98 92bd 2976 c03c
00000190: ea46 fbbc a94b 93bd dc08 0c3d 5c21 8b3d
000001a0: 1c8e 27bd 2c0e d43d 1b29 8d3c 9d54 aa3d
000001b0: 66ea 9f3d f384 1cbc f600 523d 137e 423d
000001c0: f692 9abb f749 f7bd bcb7 de3d d922 65bd
000001d0: dc3f bc3d 5ab5 e6bc ac5e 963c d54e 163e
000001e0: d557 583d ad49 ff3c db93 9b3d 1310 b53b
000001f0: 088f 943d 972f 683d 8864 dd3d 19d8 423d
00000200: fc14 f7bc c99f 67bd 073f a1bc 2fd5 10be
00000210: d62d 513d c6f8 00be bcb7 23bd 4acf ff3d
00000220: 1a75 dfbb 504f 58bd d555 c7bc 6f9f 92bd
00000230: f153 f13d 8adb 2a3d 50ef 5abd 5c87 0c3e
00000240: c74f 4fbd b602 90bc 5827 d2bd a4f2 e93d
00000250: f2cb 14be ce57 a0bd 5232 143d eb54 c53d
00000260: f651 9ebd 044d 8c3d b076 2fbd 0641 cebc
00000270: 9c1e 14bc 1503 ff3d 5fa9 8c3d 3c36 98bd
00000280: 6762 9cbd 363b 25be 67f7 a63d 7dc1 003e
00000290: 0ee1 303d 67cb a73a 8126 9a3d 3d70 9abc
000002a0: 6ea2 a8bd e748 d4bc 9f07 323d b0da be3d
000002b0: 3954 0bbe dacb 39bd 5a38 2e3d 3775 f53c
000002c0: 74f5 1d3d 75d4 a93d 128d ffbb 1013 2b3e
000002d0: 86ec 06be aca8 483d 39b1 a93d 71f2 4f3d
000002e0: 8a01 613d 9af7 7bbb 4a51 d0bd 57c1 b23d
000002f0: 8e11 7e3d 6ec0 f6bd 0940 debd 0b90 febc
00000300: 8537 a5bd 30be a1bd 6a35 573d dc07 b23d
00000310: 2693 ca3d fa87 bc3d 1a37 f93d 6c40 b63d
00000320: d926 8a3c 5ecd cb3d 7609 bcba c735 e33d
00000330: 4084 053e 62c5 433d dafb 033e 4068 f03b
00000340: 834e 323e 8ed3 8f3b 198a 003e 84ac ccba
00000350: cf97 6b3e 2868 2b3e 83c0 c23d 48f3 a63d
00000360: aba3 443b ba4d 463d 4077 eabc cfc3 933c
00000370: 5b65 203e 7efe 2dbb 9fe8 efbd 3f0e a33d
00000380: 0080 923d 4a34 f23c a28f b63d 6696 3a3e
00000390: f0c7 3bbc 5408 2d3c 10b0 dbbc 5d25 5dbd
000003a0: 3c27 b63c 7675 893d a9ba c13d aeee 413d
000003b0: 4516 c4bd d3f8 4f3d 639c 7d3a 3330 fe3c
000003c0: afef 31bd ed29 cf3d c685 083e 3e83 5ebd
000003d0: 88c4 383e 640d 2a3e 4e59 dd3c 452a a73d
000003e0: d00d 05bd 541c 593e 4f2c db3d e224 313e
000003f0: acd8 b1bd 16cd 0d3d 7f7e ac3c 0910 c1bd

lstm.bias_hh_l1 f4 [256]
0.031297304 0.057637814 0.12571271 -0.105754934 -0.038740043 0.09064102 0.055095356 0.1128432
0.04512056 0.13653699 0.019097822 0.054541178 0.02180825 0.16847293 -0.035327744 -0.011428286
0.18230613 -0.04290952 0.15237522 0.15725596 0.17322418 0.059915524 -0.021566099 -0.072991796
0.029672146 0.14348976 0.1724284 0.10278745 0.0057148254 0.10686458 0.00091834454 0.13549492
0.14055482 -0.06104561 -0.040142123 -0.010394735 0.018943911 0.16833928 -0.035641927 0.114263244
0.047970682 0.13968346 -0.07582877 0.15616105 0.052528456 -0.035855077 0.05961692 0.054107014
0.045508023 0.19689137 -0.008201375 0.120395355 0.21018058 0.122415096 0.047916383 -0.08672795
-0.014199171 0.08618329 0.10880063 0.12794845 0.04297689 -0.09590244 -0.08722443 0.067177646
0.12638384 -0.06900573 0.040081974 -0.10312758 -0.04332153 0.011664168 0.11711696 -0.11337413
0.074091606 -0.0037448306 0.09306947 0.09785609 0.009788811 0.018936232 -0.04114726 -0.02945092
0.13834938 -0.009158895 0.09942781 0.025859885 -0.03707508 0.052858442 6.982754e-05 -0.010741463
-0.11568715 -0.0020847437 -0.05462782 0.10751852 0.100129366 0.07022991 0.03781126 -0.027820516
0.068297006 -0.08392618 -0.08195359 0.10507866 -6.328669e-05 0.025831522 -0.07345596 -0.0921297
0.03470444 0.0777529 0.07403804 0.061465975 -0.010328066 0.054765716 -0.077204295 0.11844301
0.048415538 0.009027195 0.06468047 0.07529469 -0.030881466 -0.012794127 0.12109205 -0.028854357
-0.03293838 -0.092966 -0.06414522 0.11840724 0.0547217 0.09537953 0.016502323 -0.07261822
-0.019047845 0.010015091 0.054083914 0.06562695 -0.13108866 0.103147425 -0.096274585 -0.09180652
0.061291926 -0.066930644 0.10868917 0.020316811 -0.0032810883 -0.01061869 0.11152103 0.014990527
-0.1045466 0.060449626 0.08595839 0.09357117 -0.08310602 0.1354393 0.054074798 -0.07790276
-0.017221002 0.041155253 -0.10321685 -0.056968126 -0.057370238 0.081248894 -0.07424354 -0.124546126
0.07723663 -0.04570409 -0.0801044 0.13307823 -0.0118445 0.03648716 -0.12964432 0.034129977
0.06810848 -0.02107838 0.07396887 0.085301846 -0.11704391 -0.027570277 -0.037365295 0.03656388
-0.10932613 -0.13014932 0.05749417 0.04897817 0.06981477 -0.007766728 -0.0180408 0.07739487
-0.02287129 0.021745572 -0.012084206 0.0034158924 -0.005507221 0.048868105 -0.0155786155 0.10435097
-0.005465256 0.124526 0.030132456 0.042781632 0.006386886 0.08634367 0.04109597 0.041061025
-0.097029015 0.0034435722 -0.0066822288 0.028400594 0.053920336 -0.05573317 0.10649082 0.20229214
0.11380331 0.061886434 0.105106466 -0.038577385 0.10983773 0.011179723 0.092649706 0.03808272
0.040493526 -0.01837645 -0.08006341 0.07100307 0.14965168 -0.0016993171 -0.10804381 0.064981245
0.11535997 0.01866153 0.09775716 0.092499234 0.07220507 0.01934578 -0.03712709 0.045329764
-0.021037133 0.13469203 0.13272262 -0.034568757 -0.07817392 0.008652188 0.016885879 0.12076526
0.07281632 0.19615231 0.07689637 0.08592482 0.04034263 0.131051 0.012109096 0.11975292
0.08370537 0.21279582 -0.015012044 0.10697863 0.08445794 0.10174221 0.0054034484 -0.0914912
00000000: 9a31 003d a115 6c3d d5ba 003e 0b96 d8bd
00000010: e1ad 1ebd 00a2 b93d abab 613d 561a e73d
00000020: 56d0 383d 5ad0 0b3e 0973 9c3c 9266 5f3d
00000030: 37a7 b23c 2b84 2c3e d3b3 10bd b53d 3bbc
00000040: 75ae 3a3e e5c1 2fbd 4008 1c3e b507 213e
00000050: ae61 313e fb69 753d 63ab b0bc b97c 95bd
00000060: 0013 f33c fbee 123e 1291 303e 3a82 d23d
00000070: 6e43 bb3b d1db da3d 0fbd 703a 2ebf 0a3e
00000080: 9aed 0f3e f60a 7abd 116c 24bd ae4e 2abc
00000090: 4330 9b3c 2261 2c3e 45fd 11bd d902 ea3d
000000a0: e87c 443d 2e09 0f3e 1d4c 9bbd afe8 1f3e
000000b0: 1428 573d c6dc 12bd df30 743d 519f 5d3d
000000c0: 9f66 3a3d e49d 493e 0f5f 06bc d791 f63d
000000d0: 9439 573e c4b4 fa3d f843 443d 6c9e b1bd
000000e0: a4a3 68bc dd80 b03d ddd2 de3d eb04 033e
000000f0: 8908 303d 8068 c4bd b9a2 b2bd 6f94 893d
00000100: c46a 013e e052 8dbd ff2c 243d 8d34 d3bd
00000110: eb71 31bd 111b 3f3c 04db ef3d b230 e8bd
00000120: 57bd 973d d56b 75bb 359b be3d c668 c83d
00000130: 4061 203c 2820 9b3c 088a 28bd 0e43 f1bc
00000140: 76ab 0d3e 310f 16bc cfa0 cb3d 1cd8 d33c
00000150: 0adc 17bd 1882 583d 6070 9238 f6fc 2fbc
00000160: 62ed ecbd 32a0 08bb 6cc1 5fbd ab32 dc3d
00000170: a010 cd3d b3d4 8f3d fbdf 1a3d dae7 e3bc
00000180: 4ddf 8b3d 7de1 abbd 49d7 a7bd 7b33 d73d
00000190: c8b8 84b8 a19c d33c 1470 96bd 7fae bcbd
000001a0: 3e26 0e3d ea3c 9f3d 42a1 973d bfc3 7b3d
000001b0: 0c37 29bc 0452 603d 491d 9ebd 4092 f23d
000001c0: 5f4f 463d cde6 133c 3277 843d 1a34 9a3d
000001d0: 21fb fcbc 759e 51bc 1cff f73d f95f ecbc
000001e0: 65ea 06bd f564 bebd 925e 83bd 7f7f f23d
000001f0: dc23 603d 5856 c33d e12f 873c dcb8 94bd
00000200: 3a0a 9cbc 5616 243c 1887 5d3d 6c67 863d
00000210: 1b3c 06be f53e d33d 9c2b c5bd 0f05 bcbd
00000220: 3e0d 7b3d ef12 89bd 6d98 de3d 716f a63c
00000230: 8707 57bb 04fa 2dbc 2365 e43d d49a 753c
00000240: 871c d6bd 079a 773d f40a b03d 3ea2 bf3d
00000250: 7d33 aabd 9ab0 0a3e 897d 5d3d 7b8b 9fbd
00000260: 0f13 8dbc 6992 283d 5b63 d3bd 6957 69bd
00000270: 0efd 6abd d265 a63d ff0c 98bd 0a12 ffbd
00000280: 3d2e 9e3d 3634 3bbd c70d a4bd a945 083e
00000290: 6f0f 42bc 8f73 153d 7bc1 04be e0cb 0b3d
000002a0: 757c 8b3d 91ac acbc fe7c 973d bcb2 ae3d
000002b0: b8b4 efbd 10db e1bc 5a0c 19bd 02c4 153d
000002c0: 61e6 dfbd dd45 05be 027f 6b3d 559d 483d
000002d0: 0cfb 8e3d 0980 febb 4dca 93bc 3481 9e3d
000002e0: 925c bbbc c523 b23c d5fc 45bc 2add 5f3b
000002f0: eb75 b4bb ec29 483d 733d 7fbc f6b5 d53d
00000300: e415 b3bb 7d07 ff3d 57d8 f63c cb3b 2f3d
00000310: 1549 d13b f3d4 b03d 3f54 283d 9b2f 283d
00000320: 26b7 c6bd 8ead 613b 99f6 dabb 5da8 e83c
00000330: 92db 5c3d 7748 64bd dc17 da3d ac25 4f3e
00000340: b611 e93d a17c 7d3d 0f42 d73d 5203 1ebd
00000350: 9bf2 e03d 282b 373c 21bf bd3d a0fc 1b3d
00000360: 8adc 253d 358a 96bc 49f8 a3bd 0f6a 913d
00000370: 4a3e 193e 9fbb deba 1346 ddbd e314 853d
00000380: d941 ec3d 11e0 983c e834 c83d 3d70 bd3d
00000390: 40e0 933d 0b7b 9e3c 9312 18bd b4ab 393d
000003a0: 1156 acbc b5ec 093e 70e8 073e f897 0dbd
000003b0: a619 a0bd e8c1 0d3c 4154 8a3c c753 f73d
000003c0: b920 953d 27dc 483e d87b 9d3d 5af9 af3d
000003d0: 503e 253d 3c32 063e 3b65 463c 0541 f53d
000003e0: b96d ab3d 26e7 593e 14f5 75bc 9d17 db3d
000003f0: 49f8 ac3d 385e d03d 690f b13b bd5f bbbd
